router_logits.pth (torch, 50247 bytes, 32 tensors)

weights f4 [21, 8]
0.06097456 0.10985945 0.10545752 0.105283886 0.056862295 0.38330677 0.100362994 0.07789251
0.046031553 0.017471606 0.12641639 0.20093068 0.16903543 0.22014105 0.14990342 0.07006989
0.02845454 0.02104262 0.023693534 0.027151512 0.6350962 0.08976844 0.08387791 0.090915345
0.027393976 0.0252982 0.053412657 0.5929026 0.07980595 0.044715196 0.082797855 0.093673505
0.021787638 0.030575834 0.10997348 0.29322848 0.019321637 0.37031373 0.093470104 0.061329123
0.08274473 0.009877624 0.026298715 0.014162868 0.03200234 0.027413182 0.064583406 0.7429171
0.063442126 0.08226072 0.3296651 0.08553761 0.05231363 0.16439573 0.11781866 0.10456647
0.025169289 0.013845611 0.032444496 0.059961744 0.13065983 0.06402146 0.5916121 0.0822855
0.007733279 0.02540602 0.030473908 0.05613226 0.75859684 0.039612275 0.04422171 0.03782368
0.034855388 0.05688752 0.031689737 0.59735787 0.13988997 0.039208107 0.044201408 0.055909924
0.03897708 0.014472512 0.016415529 0.02151468 0.039627142 0.0636223 0.04472701 0.7606438
0.051945694 0.022396175 0.03704243 0.036530517 0.06756001 0.6525975 0.044594515 0.08733314
0.07464538 0.1980859 0.07214594 0.04909127 0.42470554 0.0864898 0.025012229 0.06982388
0.2727862 0.09205486 0.04234691 0.04657716 0.18886125 0.10969214 0.06570036 0.18198116
0.032032184 0.034770608 0.6085488 0.043676045 0.10958731 0.03863819 0.060556814 0.072190054
0.21715601 0.37963483 0.048667457 0.074326865 0.0776281 0.06793197 0.050754625 0.083900146
0.33498144 0.043619353 0.019214721 0.030780092 0.04828222 0.057849772 0.34125495 0.12401752
0.10350376 0.019225901 0.027946215 0.07055759 0.038685974 0.12500186 0.079991266 0.5350874
0.015797626 0.005229893 0.025139974 0.017274218 0.014091923 0.7178538 0.1584634 0.04614927
0.0026836072 0.0072027766 0.11049114 0.09952842 0.011364805 0.13458568 0.6217104 0.012433134
0.06732067 0.029209858 0.0319167 0.033204325 0.011511587 0.04670002 0.70596445 0.074172325
00000000: 76c0 793d fefd e03d 1dfa d73d 149f d73d
00000010: 70e8 683d c940 c43e 1d8b cd3d 1c86 9f3d
00000020: 958b 3c3d 9d20 8f3c 4c73 013e c6c0 4d3e
00000030: a017 2d3e a86c 613e 4880 193e cd80 8f3d
00000040: 7f19 e93c 9361 ac3c f118 c23c d96c de3c
00000050: aa95 223f 84d8 b73d 2fc8 ab3d d331 ba3d
00000060: 5569 e03c 2c3e cf3c 3bc7 5a3d 77c8 173f
00000070: 4d71 a33d 4827 373d ec91 a93d e5d7 bf3d
00000080: fd7b b23c 2c7a fa3c c739 e13d 0b22 963e
00000090: 6948 9e3c c399 bd3e 416d bf3d 3f34 7b3d
000000a0: 1276 a93d c2d5 213c 6770 d73c 600b 683c
000000b0: e314 033d 9c91 e03c 4e44 843d d12f 3e3f
000000c0: f2ed 813d 4f78 a83d ddc9 a83e 582e af3d
000000d0: d146 563d 5b57 283e e94a f13d f226 d63d
000000e0: d32f ce3c b4d8 623c 85e4 043d 729a 753d
000000f0: b1cb 053e af1d 833d e473 173f 4d85 a83d
00000100: 7267 fd3b 4920 d03c 6ba4 f93c f1ea 653d
00000110: 6733 423f 7b40 223d d321 353d 01ed 1a3d
00000120: 86c4 0e3d e302 693d 19cd 013d 72ec 183f
00000130: 513f 0f3e ae98 203d 890c 353d ce01 653d
00000140: 6ea6 1f3d 1d1e 6d3c dc79 863c 8e3f b03c
00000150: 1250 223d 694c 823d ab33 373d 8db9 423f
00000160: 02c5 543d 2f78 b73c ceb9 173d 06a1 153d
00000170: e75c 8a3d a110 273f bda8 363d b8db b23d
00000180: addf 983d 08d7 4a3e 40c1 933d ed13 493d
00000190: 0173 d93e 9021 b13d 72e6 cc3c d3ff 8e3d
000001a0: a2aa 8b3e 4287 bc3d f473 2d3d b1c7 3e3d
000001b0: d864 413e 46a6 e03d e98d 863d 4559 3a3e
000001c0: 2e34 033d a06b 0e3d dbc9 1b3f a7e5 323d
000001d0: 506f e03d 1443 1e3d 6c0a 783d 61d8 933d
000001e0: 255e 5e3e 7f5f c23e 8757 473d af38 983d
000001f0: 7bfb 9e3d eb1f 8b3d 15e4 4f3d d7d3 ab3d
00000200: b082 ab3e 35aa 323d 3168 9d3c 8826 fc3c
00000210: 94c3 453d e2f3 6c3d f8b8 ae3e e6fc fd3d
00000220: c8f9 d33d a37f 9d3c 76ef e43c 7f80 903d
00000230: 2f75 1e3d 7d00 003e 76d2 a33d 7dfb 083f
00000240: 066a 813c 865f ab3b 59f2 cd3c a982 8d3c
00000250: cfe1 663c 44c5 373f 3b44 223e 0407 3d3d
00000260: 75df 2f3b 4505 ec3b 2e49 e23d 8ed5 cb3d
00000270: 7233 3a3c d4d0 093e 6a28 1f3f 58b4 4b3c
00000280: 6bdf 893d 8349 ef3c 16bb 023d 4201 083d
00000290: 189b 3c3c 8548 3f3d 16ba 343f a9e7 973d

weights f4 [21, 8]
0.008463298 0.0152653055 0.0067212232 0.9118052 0.03272155 0.010740484 0.008791847 0.0054910625
0.21713206 0.02830131 0.2200136 0.13166511 0.05344485 0.16567002 0.11050831 0.07326477
0.02673001 0.009662079 0.027978638 0.081733406 0.02144673 0.7563925 0.04455718 0.031499494
0.066824466 0.017337767 0.19306819 0.07554202 0.014345468 0.20612301 0.023977261 0.4027818
0.7399747 0.010596483 0.006515566 0.07167509 0.046902496 0.019729288 0.039726753 0.06487964
0.07461529 0.045168158 0.15396275 0.07975791 0.107457094 0.2700152 0.13613729 0.1328863
0.041859817 0.0433788 0.37878284 0.1063916 0.09429514 0.12377097 0.08596944 0.12555137
0.08341312 0.07440683 0.14324796 0.13264453 0.27064487 0.09666646 0.04641506 0.15256114
0.0052558524 0.013323348 0.115490235 0.035172045 0.11776808 0.01450479 0.68972665 0.008759024
0.0055849333 0.0023281467 0.031089474 0.022868043 0.0042280974 0.0035361592 0.9228755 0.0074897055
0.015136473 0.67384875 0.02069921 0.087787546 0.0468976 0.041004803 0.060701128 0.05392448
0.017827844 0.031626765 0.030385472 0.10329588 0.019351942 0.4716099 0.078833155 0.24706902
0.009635264 0.73682004 0.031585097 0.06381923 0.097980216 0.016918672 0.023929155 0.0193123
0.013170588 0.028128272 0.03262937 0.28491902 0.05310512 0.28827754 0.22363551 0.07613459
0.035304874 0.037125863 0.29216018 0.27419123 0.06383529 0.14633463 0.09286846 0.05817948
0.0044640084 0.0142421145 0.0040884116 0.13199525 0.03529478 0.658647 0.02556347 0.12570499
0.07815066 0.06077748 0.019410541 0.11786349 0.025539601 0.042823028 0.5852659 0.07016934
0.008357372 0.85497624 0.022988288 0.0009515076 0.007561324 0.012130253 0.07038663 0.02264847
0.07419519 0.1183178 0.11150261 0.093622796 0.045693595 0.051929545 0.43735588 0.06738254
0.17901479 0.09622997 0.038432144 0.09246441 0.06791318 0.4238098 0.041717693 0.060417973
0.028090771 0.058456924 0.05498731 0.02614515 0.018657748 0.11919414 0.021162653 0.67330533
00000000: a5a9 0a3c 551b 7a3c b53d dc3b 116c 693f
00000010: 0807 063d dbf8 2f3c ae0b 103c 5fee b33b
00000020: de57 5e3e 26d8 e73c 3f4b 613e 38d3 063e
00000030: fde8 5a3d 67a5 293e 2e52 e23d d70b 963d
00000040: e5f8 da3c b24d 1e3c 7533 e53c d863 a73d
00000050: 0db1 af3c f0a2 413f 9781 363d 9d05 013d
00000060: 44db 883d ef07 8e3c abb3 453e c6b5 9a3d
00000070: 4109 6b3c e911 533e f66b c43c 6b39 ce3e
00000080: fb6e 3d3f df9c 2d3c 8780 d53b 64ca 923d
00000090: d51c 403d 519f a13c 85b8 223d 9edf 843d
000000a0: e7cf 983d 3f02 393d 69a8 1d3e 1d58 a33d
000000b0: 7712 dc3d 6f3f 8a3e 9367 0b3e 5913 083e
000000c0: 3375 2b3d f8ad 313d d3ef c13e d7e3 d93d
000000d0: cf1d c13d a27b fd3d bf10 b03d 8a90 003e
000000e0: 7fd4 aa3d 9c62 983d 98af 123e f8d3 073e
000000f0: f791 8a3e 11f9 c53d b81d 3e3d fd38 1c3e
00000100: 4939 ac3b 2c4a 5a3c 2586 ec3d 9010 103d
00000110: 6430 f13d 80a5 6d3c ed91 303f 0282 0f3c
00000120: d101 b73b d293 183b 5aaf fe3c c355 bb3c
00000130: da8b 8a3b e8be 673b 9241 6c3f 346c f53b
00000140: f8fe 773c 5a81 2c3f 6491 a93c f5c9 b33d
00000150: b317 403d a7f4 273d bfa1 783d eadf 5c3d
00000160: b30b 923c 118b 013d f4ea f83c ca8c d33d
00000170: f787 9e3c da76 f13e 4773 a13d a9ff 7c3e
00000180: 3add 1d3c 3da0 3c3f 605f 013d a8b3 823d
00000190: daa9 c83d 0799 8a3c 1307 c43c d434 9e3c
000001a0: 73c9 573c 436d e63c 60a6 053d e8e0 913e
000001b0: c184 593d 1d99 933e b500 653e 74ec 9b3d
000001c0: d89b 103d 4a11 183d 0596 953e cb62 8c3e
000001d0: 14bc 823d bfd8 153e d231 be3d 9b4d 6e3d
000001e0: d146 923b c257 693c 15f8 853b c329 073e
000001f0: 4291 103d 179d 283f 7b6a d13c cfb8 003e
00000200: 740d a03d cff1 783d db02 9f3c 6a62 f13d
00000210: 6d38 d13c 3367 2f3d fcd3 153f f1b4 8f3d
00000220: 5ced 083c b9df 5a3f ef51 bc3c 986e 793a
00000230: fcc4 f73b f8bd 463c de26 903d 4989 b93c
00000240: a6f3 973d 9a50 f23d 7b5b e43d 4fbd bf3d
00000250: 3529 3b3d 13b4 543d 1ced df3e dbff 893d
00000260: a74f 373e 3814 c53d 066b 1d3d fb5d bd3d
00000270: 1116 8b3d 99fd d83e 2ce0 2a3d d678 773d
00000280: 9e1e e63c 8770 6f3d 603a 613d 5b2e d63c
00000290: 22d8 983c 0f1c f43d 4d5d ad3c bd5d 2c3f

weights f4 [21, 8]
0.119703226 0.12854633 0.10969511 0.123414464 0.124927364 0.12450204 0.12240922 0.14680226
0.13642919 0.048603777 0.036026783 0.64108944 0.031716004 0.03468048 0.047408372 0.024045933
0.62751794 0.020409307 0.020549301 0.073892556 0.054338828 0.14153038 0.029163694 0.03259806
0.015124907 0.051486433 0.3067731 0.0208151 0.022716261 0.42177323 0.010334454 0.15097648
0.013359085 0.0145295 0.048405394 0.011893425 0.095022224 0.1864082 0.055081982 0.5753002
0.5349768 0.01960104 0.08274538 0.019581908 0.21784544 0.038386345 0.02624761 0.060615458
0.24762246 0.062030602 0.083303355 0.17490605 0.31950983 0.028027728 0.03729424 0.047305748
0.66332585 0.03489844 0.10749475 0.021668933 0.06181576 0.029144503 0.038113818 0.04353797
0.04136115 0.4118593 0.041991983 0.09389398 0.04740921 0.04113959 0.30279762 0.019547166
0.17730372 0.06631828 0.03158766 0.24712527 0.09871601 0.22567031 0.09053577 0.06274292
0.02531048 0.02904696 0.02246768 0.11021246 0.025187196 0.45039493 0.31565696 0.021723324
0.24486837 0.08807052 0.042510208 0.061071724 0.039837267 0.42808193 0.025309747 0.070250235
0.036899563 0.024912694 0.023006748 0.04292983 0.056492224 0.21542309 0.5506396 0.049696233
0.16951744 0.33943814 0.043642092 0.028691147 0.073363855 0.23158975 0.061140865 0.05261672
0.5393529 0.10161393 0.048493735 0.05300052 0.14333361 0.0768428 0.013502437 0.023860063
0.016530229 0.006024654 0.8893483 0.002042791 0.01788667 0.011457933 0.004689715 0.05201966
0.30355772 0.043476146 0.058976796 0.07650353 0.07504672 0.093619734 0.040782277 0.3080371
0.51359856 0.16279897 0.044965476 0.09383057 0.062185 0.03237161 0.07195749 0.018292313
0.076653734 0.044077683 0.08813473 0.07999483 0.042100314 0.1048884 0.38207677 0.18207355
0.1111035 0.16424042 0.0778378 0.1236125 0.14852384 0.017574834 0.31828666 0.038820505
0.041099947 0.030007025 0.03298042 0.12547363 0.042721532 0.016914807 0.6862997 0.024502983
00000000: f726 f53d a6a1 033e d4a7 e03d b9c0 fc3d
00000010: ebd9 ff3d edfa fe3d afb1 fa3d 5553 163e
00000020: 18b4 0b3e c114 473d d290 133d 701e 243f
00000030: a4e8 013d 1e0d 0e3d 482f 423d fafb c43c
00000040: 04a5 203f 6b31 a73c 0257 a83c fb54 973d
00000050: 6492 5e3d 57ed 103e b3e8 ee3c 8b85 053d
00000060: 75ce 773c 70e3 523d 5d11 9d3e 6e84 aa3c
00000070: 7417 ba3c a9f2 d73e d751 293c 9499 1a3e
00000080: 10e0 5a3c 240d 6e3c bc44 463d a4dc 423c
00000090: 039b c23d cbe1 3e3e a59d 613d e046 133f
000000a0: 3df4 083f 5c92 a03c 6976 a93d 3d6a a03c
000000b0: e012 5f3e 003b 1d3d 3a05 d73c ea47 783d
000000c0: be90 7d3e cd13 7e3d f39a aa3d 921a 333e
000000d0: cb96 a33e 689a e53c d8c1 183d acc3 413d
000000e0: b9cf 293f abf1 0e3d 3526 dc3d 0c83 b13c
000000f0: 8632 7d3d 74c0 ee3c 3c1d 1c3d df54 323d
00000100: 4f6a 293d 39df d23e c9ff 2b3d 7d4b c03d
00000110: 2930 423d fd81 283d 4a08 9b3e 6121 a03c
00000120: 1b8f 353e e1d1 873d 1062 013d 680e 7d3e
00000130: 9f2b ca3d 1e16 673e d16a b93d 5c7f 803d
00000140: ec57 cf3c e4f3 ed3c 240e b83c 12b7 e13d
00000150: 6155 ce3c 2a9a e63e ca9d a13e 1df5 b13c
00000160: c6be 7a3e 515e b43d 2f1f 2e3d 5826 7a3d
00000170: 672c 233d 8e2d db3e 6356 cf3c 5bdf 8f3d
00000180: ff23 173d b515 cc3c a678 bc3c 30d7 2f3d
00000190: 6464 673d df97 5c3e b8f6 0c3f 478e 4b3d
000001a0: fb95 2d3e d6ca ad3e 0dc2 323d b209 eb3c
000001b0: ca3f 963d dd25 6d3e d86e 7a3d a184 573d
000001c0: 0813 0a3f f71a d03d 5ea1 463d 1317 593d
000001d0: 0cc6 123e c25f 9d3d 5339 5d3c 2e76 c33c
000001e0: 676a 873c 766a c53b 55ac 633f 59e0 053b
000001f0: 1187 923c 0eba 3b3c 2eac 993b 9112 553d
00000200: eb6b 9b3e 0b14 323d a791 713d e2ad 9c3d
00000210: 18b2 993d b4bb bf3d 510b 273d 0ab7 9d3e
00000220: 327b 033f c6b4 263e b82d 383d 3e2a c03d
00000230: b3b5 7e3d 1898 043d 735e 933d c3d9 953c
00000240: a2fc 9c3d cd8a 343d fb7f b43d 54d4 a33d
00000250: 6171 2c3d bbcf d63d 919f c33e 7d71 3a3e
00000260: 3b8a e33d a42e 283e 6d69 9f3d 8d28 fd3d
00000270: a216 183e 19f9 8f3c 78f6 a23e 4002 1f3d
00000280: 6b58 283d 4bd1 f53c 7a16 073d 297c 003e
00000290: c6fc 2e3d ec90 8a3c 56b1 2f3f 7bba c83c

weights f4 [21, 8]
0.11465854 0.11406523 0.111927316 0.116620645 0.115494356 0.10875548 0.19192319 0.12655526
0.05892939 0.031634208 0.021509549 0.5717892 0.013277556 0.20587848 0.04825997 0.04872167
0.032114 0.021855783 0.008479811 0.8482343 0.011865389 0.016076146 0.04326426 0.018110234
0.14312208 0.11239267 0.07351123 0.1688038 0.048706725 0.022458006 0.024282895 0.40672266
0.17046018 0.03205981 0.27939942 0.25094166 0.08095334 0.06730958 0.03376285 0.08511324
0.11276422 0.046538938 0.041150764 0.051791336 0.15659584 0.064235434 0.26899257 0.2579309
0.1484639 0.14748847 0.027678454 0.046217088 0.18740125 0.09120394 0.22804455 0.12350229
0.16412245 0.07257153 0.1442729 0.09592918 0.0894363 0.030315159 0.058777396 0.34457508
0.08209941 0.054158513 0.019562308 0.038207747 0.3450612 0.16220145 0.16548136 0.13322796
0.25274894 0.044482328 0.020445202 0.07345095 0.38766092 0.11210192 0.054834552 0.05427516
0.45905387 0.056594163 0.074573465 0.07355186 0.062141355 0.14675826 0.058978066 0.06834897
0.1248962 0.15430152 0.51793313 0.056854513 0.029941944 0.060292725 0.036258236 0.019521683
0.402733 0.07580997 0.05097724 0.16391501 0.045606542 0.16682181 0.06744325 0.026693141
0.052601386 0.107510254 0.42479625 0.053730596 0.04148939 0.057195924 0.14361513 0.11906112
0.041004434 0.07864833 0.1924004 0.09862302 0.042596247 0.032915823 0.25991637 0.2538954
0.009402329 0.05260227 0.03784639 0.014463403 0.1530855 0.047215007 0.031360444 0.6540246
0.11866481 0.06764619 0.08017509 0.4265987 0.045559872 0.12085763 0.08543454 0.055063136
0.45392188 0.13206656 0.073344775 0.056427926 0.035105396 0.106989935 0.08845718 0.053686388
0.21088125 0.25018325 0.070326634 0.07868522 0.06053661 0.1088775 0.170028 0.050481535
0.24731556 0.2539233 0.046107586 0.21529157 0.06651534 0.12032617 0.03439836 0.016122185
0.077462815 0.2985992 0.01584064 0.27914166 0.09527509 0.17197418 0.038635843 0.023070514
00000000: 19d2 ea3d 089b e93d 263a e53d ced6 ee3d
00000010: 4e88 ec3d 31bb de3d 8387 443e b497 013e
00000020: f25f 713d df92 013d cb34 b03c c760 123f
00000030: 1b8a 593c cfd1 523e 3fac 453d 6090 473d
00000040: f889 033d e60a b33c e8ee 0a3c e225 593f
00000050: 0c67 423c 1fb2 833c dd35 313d ea5b 943c
00000060: 988e 123e 212e e63d 0e8d 963d e7da 2c3e
00000070: b480 473d daf9 b73c ecec c63c f43d d03e
00000080: 1d8d 2e3e 2651 033d 710d 8f3e 6d7b 803e
00000090: ddca a53d 9bd9 893d ea4a 0a3d da4f ae3d
000000a0: edf0 e63d 9d9f 3e3d b48d 283d 2723 543d
000000b0: a95a 203e de8d 833d 65b9 893e 850f 843e
000000c0: ec06 183e 3807 173e edbd e23c 214e 3d3d
000000d0: 1de6 3f3e 22c9 ba3d 8384 693e c5ee fc3d
000000e0: b70f 283e 62a0 943d 46bc 133e 8576 c43d
000000f0: 612a b73d 7f57 f83c 91c0 703d 256c b03e
00000100: bc23 a83d 51d5 5d3d 2241 a03c ba7f 1c3d
00000110: ddab b03e 2318 263e f273 293e e96c 083e
00000120: 4f68 813e 1a33 363d b27c a73c 746d 963d
00000130: 7e7b c63e b195 e53d 329a 603d a14f 5e3d
00000140: 1c09 eb3e 48cf 673d f9b9 983d 5ca2 963d
00000150: ef87 7e3d cc47 163e fc92 713d 8bfa 8b3d
00000160: 94c9 ff3d 3801 1e3e 4497 043f 47e0 683d
00000170: cf48 f53c 81f5 763d 8483 143d f0eb 9f3c
00000180: 0533 ce3e 4242 9b3d 83cd 503d 56d9 273e
00000190: edcd 3a3d 56d3 2a3e b01f 8a3d 93ab da3c
000001a0: 8d74 573d 562e dc3d e57e d93e 9d14 5c3d
000001b0: c7f0 293d 4646 6a3d d80f 133e 51d6 f33d
000001c0: 44f4 273d 6012 a13d 9c04 453e defa c93d
000001d0: 6779 2e3d bed2 063d c213 853e 94fe 813e
000001e0: 3a0c 1a3c 7a75 573d d104 1b3d e9f7 6c3c
000001f0: 72c2 1c3e 8664 413d cf73 003d 286e 273f
00000200: 8906 f33d 168a 8a3d d632 a43d 256b da3e
00000210: fd9c 3a3d 3584 f73d 4ef8 ae3d e289 613d
00000220: 7368 e83e 753c 073e c935 963d f820 673d
00000230: adca 0f3d 8a1d db3d 0a29 b53d 42e6 5b3d
00000240: 41f1 573e 0518 803e 6907 903d b725 a13d
00000250: 3df5 773d 2bfb de3d d21b 2e3e bac5 4e3d
00000260: 4a40 7d3e 3c02 823e 4fdb 3c3d 6575 5c3e
00000270: 3239 883d 916d f63d 4be5 0c3d ac12 843c
00000280: d3a4 9e3d ffe1 983e 3bc4 813c a8eb 8e3e
00000290: 961f c33d 001a 303e 9e40 1e3d 60fe bc3c

weights f4 [21, 8]
0.13154787 0.10988721 0.120041 0.15417333 0.103874154 0.11667485 0.12532291 0.13847873
0.05523805 0.4813964 0.062242426 0.04992779 0.10293406 0.08414061 0.09017884 0.07394178
0.055249482 0.11226289 0.059476983 0.35115376 0.25515935 0.048460808 0.047709495 0.07052728
0.66123986 0.014438495 0.12988836 0.04629616 0.014104027 0.031760648 0.01650539 0.08576716
0.11250011 0.020527845 0.042007443 0.093106605 0.03985933 0.0216183 0.14353897 0.52684134
0.058509212 0.01687764 0.02803108 0.6611352 0.05794415 0.024235198 0.03639911 0.11686837
0.09661662 0.057138734 0.08374751 0.21967779 0.22499715 0.064841576 0.103903115 0.14907755
0.04569721 0.02736377 0.07406531 0.67968 0.035907574 0.03553259 0.038948767 0.06280473
0.588733 0.04067483 0.088625364 0.083002135 0.03830387 0.03828517 0.05096787 0.07140779
0.04570115 0.0249141 0.046739254 0.09476228 0.031865623 0.061114084 0.047952894 0.6469506
0.08833471 0.046756983 0.22481461 0.043518506 0.055633847 0.071942836 0.31765923 0.15133928
0.03582136 0.07762269 0.101871304 0.04905771 0.18741576 0.42962784 0.042601276 0.07598207
0.15301456 0.05364763 0.11769327 0.31789914 0.07826675 0.053074423 0.12436957 0.102034695
0.0608312 0.066630825 0.08188731 0.12503101 0.07164168 0.168412 0.36249655 0.063069396
0.09549697 0.16884477 0.094557375 0.048587885 0.20376511 0.08583836 0.2497802 0.05312936
0.117291376 0.103307314 0.18308926 0.05020068 0.05383117 0.039383724 0.05181951 0.401077
0.06277207 0.30582297 0.06698386 0.061813977 0.07971056 0.28450215 0.058381587 0.08001277
0.064042054 0.08571637 0.05362684 0.08853451 0.17395689 0.08268458 0.20850433 0.2429345
0.15269972 0.10235792 0.05084918 0.06672585 0.09583155 0.048190072 0.22206831 0.2612774
0.081272304 0.021469072 0.0583305 0.046915665 0.27895945 0.0602115 0.39378026 0.059061326
0.029640328 0.019899575 0.022814976 0.07082625 0.5625586 0.10601175 0.14689556 0.041352946
00000000: 7cb4 063e 8c0c e13d 0ed8 f53d 9ddf 1d3e
00000010: f9bb d43d 39f3 ee3d a654 003e 5ecd 0d3e
00000020: 4b41 623d 9779 f63e eaf1 7e3d 1581 4c3d
00000030: 18cf d23d ea51 ac3d afaf b83d ca6e 973d
00000040: 484d 623d 16ea e53d 239e 733d 6dca b33e
00000050: 3fa4 823e d77e 463d 086b 433d 9b70 903d
00000060: 0447 293f 708f 6c3c 7401 053e 0ba1 3d3d
00000070: 9414 673c 7417 023d 5036 873c b1a6 af3d
00000080: 7566 e63d 032a a83c ff0f 2c3d adae be3d
00000090: 8943 233d dc18 b13c e1fb 123e 13df 063f
000000a0: 5ba7 6f3d fa42 8a3c 6fa1 e53c 2840 293f
000000b0: d856 6d3d e588 c63c 3c17 153d af58 ef3d
000000c0: efde c53d 4e0a 6a3d d183 ab3d 37f3 603e
000000d0: a765 663e a9cb 843d 28cb d43d c9a7 183e
000000e0: ff2c 3b3d fc29 e03c 8eaf 973d 82ff 2d3f
000000f0: d213 133d 9f8a 113d be88 1f3d c49f 803d
00000100: 35b7 163f a79a 263d 3781 b53d 06fd a93d
00000110: 85e4 1c3d e9d0 1c3d afc3 503d 3f3e 923d
00000120: 2131 3b3d a818 cc3c a971 3f3d ba12 c23d
00000130: 8785 023d c352 7a3d 416a 443d 8e9e 253f
00000140: d4e8 b43d 4084 3f3d cd35 663e 7640 323d
00000150: 51e0 633d c456 933d 3ba4 a23e aff8 1a3e
00000160: 6bb9 123d a5f8 9e3d e7a1 d03d bdf0 483d
00000170: ebe9 3f3e 2ef8 db3e ad7e 2e3d 7d9c 9b3d
00000180: d9af 1c3e 9ebd 5b3d 2b09 f13d adc3 a23e
00000190: 514a a03d 9164 593d 79b5 fe3d 91f7 d03d
000001a0: 232a 793d be75 883d 89b4 a73d 2108 003e
000001b0: e0b8 923d 3274 2c3e 2699 b93e 872a 813d
000001c0: ea93 c33d a5e5 2c3e 4ca7 c13d 1704 473d
000001d0: cda7 503e 06cc af3d 61c6 7f3e 2c9e 593d
000001e0: 7636 f03d c992 d33d c07b 3b3e 3a9f 4d3d
000001f0: 137e 5c3d d450 213d b240 543d f759 cd3e
00000200: a58e 803d d494 9c3e d62e 893d a730 7d3d
00000210: 4a3f a33d 44aa 913e 8821 6f3d bcdd a33d
00000220: 7b28 833d 108c af3d d1a7 5b3d 9551 b53d
00000230: c121 323e 8856 a93d 2982 553e d2c3 783e
00000240: 515d 1c3e 07a1 d13d 3b47 503d 90a7 883d
00000250: 5543 c43d f462 453d e065 633e 27c6 853e
00000260: 1872 a63d e8df af3c f6eb 6e3d a42a 403d
00000270: c6d3 8e3e 55a0 763d 919d c93e 4aea 713d
00000280: 46d0 f23c 6f04 a33c 79e6 ba3c 5a0d 913d
00000290: d703 103f b01c d93d ca6b 163e b561 293d

weights f4 [21, 8]
0.10811622 0.12400881 0.11289064 0.14657363 0.12915355 0.14218114 0.10530274 0.13177325
0.07187391 0.14401543 0.039467867 0.05728539 0.45345372 0.0286506 0.13802572 0.06722733
0.06589398 0.09637974 0.03925594 0.05913913 0.06869896 0.029286712 0.5531397 0.08820583
0.041364532 0.03810679 0.39169 0.19352226 0.043924946 0.06501202 0.12926029 0.09711923
0.12329846 0.11851708 0.08386186 0.061786808 0.47195944 0.01230996 0.07207756 0.0561889
0.103840604 0.1172224 0.09568289 0.40152672 0.11930117 0.029892806 0.09248467 0.04004878
0.07869103 0.24262226 0.094919495 0.07448498 0.12588613 0.11643986 0.13117279 0.13578346
0.12267054 0.14394256 0.06981029 0.031419907 0.47058877 0.020858753 0.06428871 0.076420486
0.023213899 0.1005907 0.073306814 0.034967504 0.089020565 0.16391386 0.47545987 0.039526757
0.48051202 0.04805576 0.094618425 0.01962119 0.23833574 0.030748118 0.06501188 0.023096845
0.037301373 0.061770428 0.09267182 0.3698049 0.055818554 0.046263915 0.28969678 0.04667232
0.10502655 0.050293967 0.5014208 0.041950423 0.062332608 0.06308277 0.12718204 0.048710894
0.053523898 0.08900328 0.063825555 0.3954911 0.09201369 0.06928198 0.15963688 0.077223614
0.05302976 0.059695784 0.059463054 0.06934137 0.07670238 0.03873115 0.36443326 0.27860326
0.03623591 0.5569483 0.20995359 0.034073744 0.067289755 0.033187054 0.039535884 0.022775719
0.36972186 0.08941077 0.116508685 0.037002783 0.03894937 0.19068858 0.08541144 0.072306566
0.08984703 0.11581032 0.14790685 0.39572263 0.05770943 0.054771744 0.06472624 0.073505774
0.06900196 0.1234455 0.09560697 0.23054215 0.12058591 0.05079198 0.1606303 0.1493953
0.03761376 0.059886906 0.063508496 0.5315555 0.054421254 0.05266968 0.1603048 0.040039644
0.029546563 0.042045426 0.01131361 0.035823148 0.05567395 0.025520526 0.13087577 0.6692011
0.03916817 0.20392796 0.041592635 0.040609308 0.031014845 0.033404306 0.18067016 0.42961264
00000000: 096c dd3d 55f8 fd3d 3533 e73d 6617 163e
00000010: d440 043e ef97 113e f7a8 d73d 91ef 063e
00000020: a132 933d c878 133e 0fa9 213d 16a4 6a3d
00000030: 162b e83e aab4 ea3c 9d56 0d3e 7bae 893d
00000040: 6cf3 863d be62 c53d d6ca 203d df3b 723d
00000050: 0ab2 8c3d b0ea ef3c 909a 0d3f 42a5 b43d
00000060: db6d 293d de15 1c3d 978b c83e b32a 463e
00000070: a5ea 333d 0625 853d cf5c 043e 72e6 c63d
00000080: e783 fc3d 15b9 f23d c4bf ab3d 2a14 7d3d
00000090: aba4 f13e b7af 493c 669d 933d 5526 663d
000000a0: 62aa d43d 4c12 f03d 64f5 c33d e994 cd3e
000000b0: 2c54 f43d c2e1 f43c 9a68 bd3d 310a 243d
000000c0: c328 a13d f871 783e 2765 c23d 958b 983d
000000d0: 4be8 003e 0578 ee3d 2952 063e d20a 0b3e
000000e0: b13a fb3d ae65 133e b3f8 8e3d 29b2 003d
000000f0: 03f1 f03e fadf aa3c cda9 833d 5882 9c3d
00000100: 132b be3c 7f02 ce3d e221 963d 163a 0f3d
00000110: 6a50 b63d 09d9 273e 7a6f f33e cfe6 213d
00000120: ac05 f63e 1ed6 443d 4ec7 c13d 9ebc a03c
00000130: 490e 743e 7ae3 fb3c f324 853d 9835 bd3c
00000140: 53c9 183d fd02 7d3d b9ca bd3d 1157 bd3e
00000150: ffa1 643d 3b7f 3d3d 2353 943e 7a2b 3f3d
00000160: 2918 d73d 0c01 4e3d 1d5d 003f 35d4 2b3d
00000170: 7a50 7f3d 8a31 813d 023c 023e 1385 473d
00000180: e03b 5b3d 5a47 b63d f9b6 823d cf7d ca3e
00000190: ac71 bc3d b6e3 8d3d da77 233e 6a27 9e3d
000001a0: bc35 593d 9183 743d 888f 733d d902 8e3d
000001b0: 2316 9d3d 8ea4 1e3d ff96 ba3e 16a5 8e3e
000001c0: 1b6c 143d 2a94 0e3f 13fe 563e e990 0b3d
000001d0: 36cf 893d 26ef 073d 61f0 213d 2594 ba3c
000001e0: 2f4c bd3e fe1c b73d 1b9c ee3d 3b90 173d
000001f0: 6089 1f3d de43 433e 31ec ae3d 7715 943d
00000200: b801 b83d f62d ed3d e574 173e 289c ca3e
00000210: b960 6c3d 5658 603d 318f 843d 328a 963d
00000220: e650 8d3d ffd0 fc3d 96cd c33d 3e13 6c3e
00000230: bff5 f63d 400b 503d 457c 243e 15fb 183e
00000240: e310 1a3d f94b 753d be10 823d 0514 083f
00000250: d2e8 5e3d 2abc 573d f126 243e 9c00 243d
00000260: a20b f23c d337 2c3d b85c 393c 4bbb 123d
00000270: 5e0a 643d 6c10 d13c 4c04 063e c350 2b3f
00000280: ce6e 203d 7ed2 503e 0a5d 2a3d f255 263d
00000290: d812 fe3c f4d2 083d 9901 393e 30f6 db3e

weights f4 [21, 8]
0.13795179 0.10715046 0.13215175 0.14526215 0.12343486 0.1367676 0.109290496 0.10799086
0.038792137 0.42882532 0.06034705 0.072446726 0.048966076 0.03263437 0.2313339 0.08665446
0.02874646 0.14066839 0.072348036 0.3166917 0.23765485 0.045512512 0.02480521 0.13357292
0.014805731 0.017505145 0.7002656 0.04725686 0.12420923 0.014921854 0.03780776 0.043227915
0.021354068 0.06294724 0.19868308 0.12979156 0.40687576 0.08219896 0.027046846 0.071102545
0.018616304 0.023625318 0.5640656 0.05142323 0.19800565 0.035945244 0.05184553 0.056473058
0.14254157 0.046344314 0.19227952 0.12827353 0.15356079 0.05697665 0.19683929 0.08318438
0.044821054 0.022808675 0.29034975 0.06880487 0.41146296 0.05676296 0.07315249 0.03183725
0.084623724 0.015306135 0.068588965 0.03382575 0.026330663 0.02460287 0.67477983 0.07194206
0.1557071 0.14060098 0.066398986 0.286809 0.10167055 0.0795177 0.10262052 0.06667514
0.10135819 0.24903327 0.113398075 0.12066005 0.061627127 0.05727476 0.13586062 0.16078797
0.061251465 0.02696701 0.6095849 0.14226623 0.037955374 0.04872377 0.042166904 0.031084336
0.18600957 0.04935988 0.17984705 0.39667702 0.058982372 0.051640388 0.060425334 0.017058318
0.04901728 0.02491211 0.029874181 0.447875 0.3868472 0.031956557 0.015536406 0.013981252
0.07253917 0.038220793 0.352331 0.23746966 0.107468 0.04144778 0.049800653 0.10072297
0.37570927 0.050834313 0.07388227 0.24519598 0.060692344 0.03510032 0.12120314 0.037382342
0.06347733 0.050300583 0.07757019 0.04998231 0.04462918 0.4405124 0.1626103 0.11091767
0.065017045 0.098572746 0.08729797 0.08434398 0.18521631 0.20056017 0.08125155 0.19774023
0.17389117 0.04022797 0.0349336 0.059685774 0.08358171 0.099686794 0.052749727 0.4552433
0.025617313 0.008614835 0.7717054 0.040039346 0.014377906 0.0044432064 0.011902255 0.123299755
0.059176072 0.009551763 0.555143 0.044922713 0.05588846 0.050714932 0.010994012 0.21360908
00000000: 3c43 0d3e b371 db3d ca52 073e 9abf 143e
00000010: 6acb fc3d ce0c 0c3e b2d3 df3d 502a dd3d
00000020: 81e4 1e3d fe8e db3e 782e 773d f35e 943d
00000030: a790 483d 9eab 053d cbe2 6c3e e577 b13d
00000040: b27d eb3c 600b 103e 352b 943d 6a25 a23e
00000050: cb5b 733e 546b 3a3d 4c34 cb3c 57c7 083e
00000060: bd93 723c f366 8f3c 9b44 333f 6990 413d
00000070: 6961 fe3d cb7a 743c 4fdc 1a3d c10f 313d
00000080: baee ae3c 7cea 803d 9473 4b3e 14e8 043e
00000090: 0552 d03e ee57 a83d 5991 dd3c 369e 913d
000000a0: 3881 983c e289 c13c 9a66 103f 2aa1 523d
000000b0: fec1 4a3e 523b 133d fa5b 543d 4b50 673d
000000c0: 6bf6 113e 89d3 3d3d ece4 443e 235a 033e
000000d0: 0a3f 1d3e 5960 693d 3d90 493e 925c aa3d
000000e0: 4896 373d 42d9 ba3c b9a8 943e 91e9 8c3d
000000f0: 46ab d23e 4780 683d f9d0 953d c767 023d
00000100: 344f ad3d 95c6 7a3c 5f78 8c3d df8c 0a3d
00000110: 67b3 d73c f58b c93c 5fbe 2c3f 5c56 933d
00000120: af71 1f3e b4f9 0f3e 31fc 873d a1d8 923e
00000130: a638 d03d 2dda a23d b52a d23d fa8c 883d
00000140: e294 cf3d 9402 7f3e 403d e83d 9e1c f73d
00000150: ba6c 7c3d f098 6a3d 0c1f 0b3e 9aa5 243e
00000160: d1e2 7a3d ebe9 dc3c c20d 1c3f 3dae 113e
00000170: 1877 1b3d 9392 473d 34b7 2c3d 94a4 fe3c
00000180: 4b79 3e3e 962d 4a3d d329 383e 4019 cb3e
00000190: 8097 713d df84 533d 8e80 773d e3bd 8b3c
000001a0: 58c6 483d 7b14 cc3c b3ba f43c df4f e53e
000001b0: d610 c63e e1e4 023d 698c 7e3c 9f11 653c
000001c0: 6b8f 943d 688d 1c3d bb64 b43e 3f2b 733e
000001d0: 2f18 dc3d 26c5 293d c5fb 4b3d d847 ce3d
000001e0: f75c c03e a437 503d 964f 973d a814 7b3e
000001f0: 8998 783d 5ac5 0f3d 5a39 f83d 3a1e 193d
00000200: 6700 823d fc07 4e3d 1fdd 9e3d 40ba 4c3d
00000210: 16cd 363d d78a e13e 5183 263e ce28 e33d
00000220: a827 853d 82e0 c93d 47c9 b23d 89bc ac3d
00000230: 58a9 3d3e a55f 4d3e 3667 a63d 6a7c 4a3e
00000240: 8710 323e 15c6 243d 8916 0f3d 1279 743d
00000250: e32c ab3d 9728 cc3d 1910 583d a615 e93e
00000260: 66db d13c 3d25 0d3c 7c8e 453f 4c00 243d
00000270: 4f91 6b3c 5198 913b ad01 433c 9584 fc3d
00000280: 9c62 723d ff7e 1c3c da1d 0e3f e100 383d
00000290: 4ceb 643d 76ba 4f3d 3a20 343c 57bc 5a3e

weights f4 [21, 8]
0.09867752 0.11850906 0.09473521 0.16876012 0.11632911 0.1685954 0.11353555 0.12085796
0.24294038 0.06377835 0.061816093 0.09916845 0.1344103 0.069807805 0.103285804 0.22479285
0.096084364 0.34224555 0.07370924 0.12325905 0.1181326 0.050302155 0.03149366 0.16477343
0.027316716 0.076550856 0.0312882 0.36300364 0.14333917 0.02746383 0.018719561 0.3123181
0.0038105568 0.7699835 0.009711611 0.13198617 0.048888054 0.01422029 0.004322145 0.017077731
0.019689713 0.67404675 0.022563346 0.113583446 0.04080461 0.026482472 0.006244236 0.09658548
0.043485023 0.31695023 0.06630675 0.18769512 0.075965405 0.12573597 0.07094597 0.11291556
0.01740061 0.47260642 0.031217467 0.046966054 0.059632137 0.048813127 0.24327694 0.08008723
0.018190172 0.05797786 0.050347444 0.040356662 0.21689148 0.12391336 0.0734364 0.4188866
0.009578889 0.64517564 0.05838487 0.05058961 0.06799271 0.09367535 0.026904043 0.0476989
0.04637994 0.06871266 0.25281748 0.09221501 0.15552834 0.1197729 0.21247824 0.052095465
0.27764034 0.06008793 0.1847678 0.08170049 0.2401604 0.052448027 0.060367305 0.042827733
0.055878006 0.054053143 0.09304128 0.14293355 0.100419104 0.13004717 0.37981138 0.04381634
0.05381633 0.10066494 0.1315164 0.34785575 0.123699136 0.1322247 0.07370201 0.036520787
0.15279117 0.027407328 0.046394344 0.24214126 0.3761361 0.07472512 0.0354158 0.044988904
0.05740948 0.038224284 0.15921076 0.37380883 0.18990014 0.09098728 0.04886574 0.041593492
0.047698054 0.2819546 0.14201818 0.078200445 0.110695034 0.15762252 0.10444635 0.07736489
0.0956368 0.12989287 0.02380588 0.3637603 0.050668467 0.07955716 0.016716849 0.23996176
0.0325189 0.12441445 0.053379506 0.34385493 0.05506051 0.16554828 0.014206455 0.21101698
0.2637288 0.06586401 0.02129175 0.13215868 0.33929652 0.029690858 0.026010882 0.12195854
0.06038679 0.14883973 0.043964725 0.115732685 0.17206797 0.19877562 0.18001777 0.080214635
00000000: 7117 ca3d e1b4 f23d 8904 c23d 74cf 2c3e
00000010: f53d ee3d 46a4 2c3e 5485 e83d 6184 f73d
00000020: 5dc5 783e 399e 823d df32 7d3d d418 cb3d
00000030: dba2 093e 65f7 8e3d 8287 d33d 1930 663e
00000040: e1c7 c43d cf3a af3e dff4 963d 3e6f fc3d
00000050: 81ef f13d a209 4e3d 7fff 003d 5eba 283e
00000060: 4ec7 df3c b2c6 9c3d 0e28 003d 9ddb b93e
00000070: 81c7 123e d3fb e03c c459 993c 28e8 9f3e
00000080: 89ba 793b a31d 453f 731d 1f3c 6227 073e
00000090: d73e 483d 38fc 683c c8a0 8d3b 99e6 8b3c
000000a0: 524c a13c 548e 2c3f c4d6 b83c 709e e83d
000000b0: bc22 273d c5f1 d83c 739c cc3b 9cce c53d
000000c0: 5a1d 323d 4d47 a23e d5cb 873d 2633 403e
000000d0: c093 9b3d eec0 003e 1f4c 913d 4640 e73d
000000e0: b98b 8e3c 78f9 f13e c6bb ff3c 7a5f 403d
000000f0: d440 743d 46f0 473d 971d 793e c604 a43d
00000100: 8e03 953c 317a 6d3d 1f39 4e3d 074d 253d
00000110: cd18 5e3e 4ac6 fd3d d365 963d 4e78 d63e
00000120: c6f0 1c3c 3b2a 253f f924 6f3d 0d37 4f3d
00000130: c33f 8b3d ddd8 bf3d de65 dc3c ec5f 433d
00000140: e4f8 3d3d 39b9 8c3d 4b71 813e 39db bc3d
00000150: d242 1f3e 7f4b f53d e593 593e 0e62 553d
00000160: e026 8e3e c31e 763d c533 3d3e 9652 a73d
00000170: 9cec 753e bed3 563d b543 773d 226c 2f3d
00000180: 56e0 643d d466 5d3d 6d8c be3d 2c5d 123e
00000190: 88a8 cd3d 162b 053e a376 c23e c378 333d
000001a0: 836e 5c3d 6c29 ce3d 3cac 063e 261a b23e
000001b0: f955 fd3d e965 073e 14f1 963d d296 153d
000001c0: 4a75 1c3e 5585 e03c ff07 3e3d e1f3 773e
000001d0: e994 c03e 7c09 993d 2810 113d 4946 383d
000001e0: 3426 6b3d 1191 1c3d 2508 233e df63 bf3e
000001f0: 2f75 423e 8a57 ba3d 7127 483d f05d 2a3d
00000200: 095f 433d 5a5c 903e 376d 113e 8e27 a03d
00000210: 14b4 e23d cc67 213e f8e7 d53d 7c71 9e3d
00000220: 3add c33d a302 053e 8d04 c33c ca3e ba3e
00000230: bd89 4f3d ddee a23d c6f1 883c 89b8 753e
00000240: 8a32 053d 01cd fe3d 78a4 5a3d c10d b03e
00000250: 2187 613d 7d85 293e 31c2 683c d614 583e
00000260: 7607 873e b6e3 863d 096c ae3c 9b54 073e
00000270: 46b8 ad3e 3e3a f33c c614 d53c 66c5 f93d
00000280: 2458 773d 7169 183e 5b14 343d 4205 ed3d
00000290: 9632 303e d68b 4b3e 9456 383e 9247 a43d

weights f4 [21, 8]
0.11551362 0.0873554 0.13382855 0.11819972 0.15910974 0.10261617 0.10531284 0.17806399
0.17113438 0.10106013 0.15117311 0.060841337 0.051976863 0.021357317 0.043779593 0.39867726
0.037015732 0.0589343 0.018841278 0.5223384 0.034502458 0.015302897 0.050929118 0.26213577
0.023886057 0.038534973 0.008761482 0.3310274 0.07541099 0.034711607 0.018100709 0.46956673
0.32515487 0.0138873905 0.09955476 0.26229185 0.027031338 0.17387298 0.011648764 0.08655805
0.065382265 0.022614824 0.026400708 0.4839987 0.03637739 0.058694202 0.016675126 0.28985676
0.11055674 0.06365811 0.123908386 0.3357506 0.08316785 0.049978033 0.042978697 0.19000164
0.3595074 0.046550855 0.033341575 0.2589435 0.03261696 0.075384445 0.013939615 0.17971557
0.043133892 0.021290358 0.041919224 0.6694768 0.04894875 0.03157284 0.06841641 0.07524169
0.1505566 0.015478264 0.06496736 0.4510179 0.028385602 0.174734 0.034914885 0.07994536
0.03304546 0.2268193 0.05961159 0.5713385 0.031872746 0.02878057 0.026997268 0.02153461
0.042864878 0.06933071 0.048406538 0.107735984 0.550747 0.038106203 0.062018804 0.080789864
0.040401477 0.6152391 0.029171223 0.11215282 0.033347137 0.033119954 0.09416587 0.042402457
0.24987167 0.09563988 0.04131158 0.08148868 0.1703145 0.049636997 0.24539793 0.066338845
0.06468778 0.15436552 0.02687715 0.09268359 0.44362846 0.02165976 0.10111189 0.09498583
0.04772817 0.05720688 0.018108938 0.033258677 0.034516077 0.01209264 0.7577036 0.039384924
0.260685 0.041488748 0.12639803 0.14277387 0.030265018 0.21370196 0.021714088 0.16297327
0.07888064 0.058203768 0.35454485 0.070656374 0.038498532 0.026524303 0.034712657 0.33797884
0.15863328 0.059247993 0.046572447 0.15724516 0.15315323 0.024102554 0.032751817 0.36829355
0.035169564 0.23351526 0.03682141 0.2355767 0.020404335 0.007058439 0.035393517 0.3960608
0.010209246 0.06829711 0.07503259 0.3374241 0.020066965 0.32864344 0.013276414 0.14705022
00000000: 6892 ec3d 63e7 b23d 5a0a 093e b212 f23d
00000010: aaed 223e 6d28 d23d 42ae d73d 6856 363e
00000020: da3d 2f3e 9df8 ce3d 20cd 1a3e c434 793d
00000030: b1e5 543d 8af5 ae3c 3b52 333d 6d1f cc3e
00000040: cf9d 173d 1865 713d 0659 9a3c f8b7 053f
00000050: 7352 0d3d 01b9 7a3c 0d9b 503d a936 863e
00000060: b1ac c33c d9d6 1d3d 528c 0f3c 6c7c a93e
00000070: 1471 9a3d c22d 0e3d f047 943c 0d6b f03e
00000080: b37a a63e f087 633c 5ee3 cb3d 1e4b 863e
00000090: d370 dd3c c20b 323e 75da 3e3c 5945 b13d
000000a0: 23e7 853d b942 b93c 4c46 d83c adce f73e
000000b0: 7500 153d 5569 703d 469a 883c 1b68 943e
000000c0: 926b e23d 2f5f 823d aec3 fd3d 81e7 ab3e
000000d0: e853 aa3d c4b5 4c3d 6e0a 303d ca8f 423e
000000e0: 5b11 b83e 1cac 3e3d 2d91 083d 3e94 843e
000000f0: 5d99 053d 2963 9a3d fc62 643c 5c07 383e
00000100: 2aad 303d 1e69 ae3c 7eb3 2b3d d562 2b3f
00000110: 7c7e 483d 8652 013d e71d 8c3d 5118 9a3d
00000120: 822b 1a3e 8b98 7d3c 9b0d 853d d1eb e63e
00000130: ec88 e83c 78ed 323e e902 0f3d 65ba a33d
00000140: ad5a 073d 5243 683e 482b 743d 3d43 123f
00000150: ff8c 023d 3bc5 eb3c 6029 dd3c 5a69 b03c
00000160: 1593 2f3d 42fd 8d3d ef45 463d afa4 dc3d
00000170: c1fd 0c3f 4015 1c3d 6e07 7e3d 2875 a53d
00000180: 057c 253d 4f80 1d3f 7df8 ee3c 61b0 e53d
00000190: 0297 083d caa8 073d 09da c03d 33ae 2d3d
000001a0: 5cde 7f3e d7de c33d 5536 293d 89e3 a63d
000001b0: ed66 2e3e 2a50 4b3d 9849 7b3e a9dc 873d
000001c0: 077b 843d ff11 1e3e 782d dc3c e5d0 bd3d
000001d0: 4523 e33e cf6f b13c c013 cf3d ee87 c23d
000001e0: 9d7e 433d c351 6a3d 3259 943c 403a 083d
000001f0: bb60 0d3d 3520 463c ddf8 413f 1652 213d
00000200: 8178 853e 1bf0 293d 7c6e 013e 5033 123e
00000210: 58ee f73c b0d4 5a3e bee1 b13c 77e2 263e
00000220: 2c8c a13d 1367 6e3d e786 b53e 4ab4 903d
00000230: a3b0 1d3d 7f49 d93c dc2e 0e3d 900b ad3e
00000240: c370 223e 06ae 723d c0c2 3e3d e004 213e
00000250: 33d4 1c3e b872 c53c c526 063d f990 bc3e
00000260: f60d 103d a01e 6f3e 0cd2 163d 053b 713e
00000270: fe26 a73c 7a4a e73b cbf8 103d 7bc8 ca3e
00000280: ae44 273c 5bdf 8b3d b0aa 993d dac2 ac3e
00000290: 7a63 a43c f443 a83e 5185 593c 5594 163e

weights f4 [21, 8]
0.105081804 0.14247727 0.13386135 0.1106368 0.14245988 0.104124136 0.13718642 0.12417232
0.069197714 0.10614047 0.24508776 0.11601884 0.10743094 0.1334391 0.099983975 0.12270123
0.2339109 0.14539823 0.13673913 0.088522844 0.08579928 0.10899466 0.13819906 0.06243584
0.025198953 0.06361364 0.16920303 0.09235415 0.35368407 0.027034532 0.021033963 0.24787767
0.10354012 0.033750236 0.10449241 0.053434685 0.047968756 0.04231162 0.4275409 0.18696128
0.048949633 0.21523899 0.021966584 0.06209 0.120826595 0.052528117 0.09394491 0.38445514
0.026572436 0.1177882 0.0411361 0.067574054 0.096931346 0.10936264 0.4305359 0.11009937
0.016756514 0.52845573 0.027438613 0.032536466 0.1029724 0.05683206 0.04078994 0.19421825
0.008299616 0.43323803 0.016441407 0.026056107 0.06635816 0.015627338 0.035640568 0.39833882
0.052086733 0.23780829 0.020387499 0.055595137 0.04800798 0.119489975 0.38505974 0.0815647
0.07654453 0.21567257 0.098482534 0.3907233 0.07581917 0.03713218 0.065200835 0.04042486
0.3499885 0.041576255 0.04604319 0.10051849 0.23348436 0.0807196 0.045618013 0.10205158
0.082710154 0.24041317 0.4785858 0.042893752 0.062098462 0.026763702 0.048050452 0.01848444
0.42748633 0.1024958 0.19268319 0.035382703 0.04733447 0.09721298 0.07031538 0.027089149
0.042678736 0.0349697 0.6183413 0.06277551 0.073284574 0.07279642 0.03698951 0.058164258
0.105536744 0.20254776 0.23971067 0.059407067 0.04653815 0.13345166 0.13975374 0.0730541
0.053593244 0.11702984 0.025290946 0.05685505 0.07639484 0.13077953 0.40937278 0.13068376
0.08451014 0.09943152 0.044360094 0.20362213 0.22516917 0.14145876 0.116004474 0.08544371
0.036738914 0.06815308 0.020229802 0.068805106 0.09642854 0.064196065 0.28756636 0.3578821
0.014530072 0.27469832 0.26991186 0.041757725 0.1287171 0.083344735 0.02276989 0.16427033
0.020459691 0.16171564 0.08838936 0.019446662 0.12423408 0.26403293 0.23946746 0.082254164
00000000: 2135 d73d 90e5 113e f312 093e 8c95 e23d
00000010: 01e1 113e 093f d53d 997a 0c3e 0f4e fe3d
00000020: 88b7 8d3d 2d60 d93d 49f8 7a3e 499b ed3d
00000030: c104 dc3d 42a4 083e 66c4 cc3d c84a fb3d
00000040: 5786 6f3e 46e3 143e 5805 0c3e 774b b53d
00000050: 88b7 af3d 9838 df3d 0e84 0d3e b9bc 7f3d
00000060: 096e ce3c de47 823d 8f43 2d3e 2c24 bd3d
00000070: 1416 b53e 8677 dd3c 6b4f ac3c a5d3 7d3e
00000080: d80c d43d b03d 0a3d 1e00 d63d 54de 5a3d
00000090: e37a 443d f34e 2d3d a4e6 da3e c772 3f3e
000000a0: 697f 483d 9c67 5c3e 44f3 b33c 1552 7e3d
000000b0: ef73 f73d b927 573d 3066 c03d 4ed7 c43e
000000c0: 70ae d93c f13a f13d 547e 283d 4464 8a3d
000000d0: f183 c63d 85f9 df3d 346f dc3e c77b e13d
000000e0: f544 893c e048 073f f1c6 e03c f544 053d
000000f0: 32e3 d23d bcc8 683d 5a13 273d 26e1 463e
00000100: 1dfb 073c 60d1 dd3e 21b0 863c 9e73 d53c
00000110: c9e6 873d e704 803c d8fb 113d 11f3 cb3e
00000120: e658 553d 0484 733e af03 a73c bab7 633d
00000130: 04a4 443d 29b7 f43d 8d26 c53e 650b a73d
00000140: 61c3 9c3d 45d9 5c3e 36b1 c93d e20c c83e
00000150: 1547 9b3d ea17 183d 0488 853d 8a94 253d
00000160: b131 b33e dd4b 2a3d c997 3c3d a3dc cd3d
00000170: 8616 6f3e 5150 a53d f4d9 3a3d 6b00 d13d
00000180: f163 a93d df2e 763e 3309 f53e 5cb1 2f3d
00000190: f55a 7e3d 8d3f db3c 8dd0 443d ae6c 973c
000001a0: 7ddf da3e 51e9 d13d be4e 453e 74ed 103d
000001b0: cae1 413d 9917 c73d 8301 903d 10ea dd3c
000001c0: e6cf 2e3d 633c 0f3d 9e4b 1e3f 7290 803d
000001d0: 3916 963d 4a16 953d 5082 173d a53d 6e3d
000001e0: a623 d83d ae68 4f3e b776 753e d354 733d
000001f0: ca9e 3e3d 8da7 083e 9b1b 0f3e 639d 953d
00000200: 9784 5b3d 57ad ef3d f52e cf3c d7e0 683d
00000210: e674 9c3d 12eb 053e 4f99 d13e f7d1 053e
00000220: a713 ad3d c1a2 cb3d eeb2 353d 5282 503e
00000230: bf92 663e 91da 103e c193 ed3d 1dfd ae3d
00000240: 8b7b 163d d893 8b3d f8b8 a53c b1e9 8c3d
00000250: 547c c53d 3a79 833d e63b 933e 533c b73e
00000260: 8a0f 6e3c 42a5 8c3e e331 8a3e 260a 2b3d
00000270: 6ace 033e a5b0 aa3d ec87 ba3c 7b36 283e
00000280: 159b a73c c998 253e 7b05 b53d 9b4e 9f3c
00000290: 706e fe3d 532f 873e f536 753e df74 a83d

weights f4 [21, 8]
0.11283602 0.11262959 0.1001993 0.14579801 0.105779886 0.13730773 0.16739306 0.11805642
0.13744478 0.057267543 0.23506062 0.07507488 0.11976081 0.11061201 0.16988748 0.09489196
0.045210216 0.023158869 0.22090855 0.11905491 0.29886588 0.13226525 0.043969274 0.11656705
0.036613014 0.11262468 0.2536488 0.3287271 0.037572883 0.14062642 0.044510104 0.04567701
0.05719703 0.024432544 0.25310558 0.03263766 0.42511567 0.054457992 0.026651094 0.12640244
0.0775094 0.033606045 0.2273128 0.06438318 0.37716195 0.042337064 0.046931554 0.13075802
0.24915428 0.0849362 0.14442845 0.112117715 0.15082483 0.10215291 0.083558165 0.07282737
0.060414918 0.09770463 0.60291314 0.07764297 0.061194263 0.026464297 0.03301586 0.040649876
0.09297014 0.15814753 0.12193034 0.09693362 0.14576349 0.061344583 0.25377008 0.06914016
0.048642963 0.033010043 0.045807533 0.04228238 0.45948792 0.029734848 0.046962567 0.2940717
0.037333578 0.034326192 0.03409234 0.06861669 0.15493238 0.24475656 0.13200404 0.29393822
0.030126972 0.25447688 0.041562494 0.33679798 0.079161115 0.06721599 0.084122695 0.10653594
0.031922825 0.040889766 0.021876032 0.055157695 0.11959632 0.490177 0.11595918 0.12442122
0.060736313 0.1026121 0.028300228 0.18744677 0.2029754 0.1397926 0.10746438 0.17067222
0.046657957 0.08543039 0.013096377 0.5180491 0.0154917 0.21637718 0.038398534 0.06649874
0.06376612 0.27329296 0.012608516 0.14181714 0.04168633 0.24944434 0.14195569 0.075428925
0.46281946 0.12795678 0.10170829 0.05792865 0.060354028 0.052053835 0.054845735 0.08233321
0.19936743 0.028707579 0.09469325 0.04108157 0.09512191 0.058531407 0.43397266 0.048524242
0.48846957 0.040233307 0.13527931 0.05029168 0.13121328 0.03781415 0.077836245 0.0388624
0.03971337 0.018315766 0.21956514 0.21721916 0.0668003 0.20266832 0.13467702 0.10104095
0.058315072 0.026594495 0.19102111 0.109053336 0.25207525 0.09736178 0.0807059 0.18487301
00000000: 9216 e73d 58aa e63d 4a35 cd3d 134c 153e
00000010: 20a3 d83d 669a 0c3e 1669 2b3e 90c7 f13d
00000020: 53be 0c3e 5f91 6a3d bbb3 703e dcc0 993d
00000030: 2845 f53d 8d88 e23d fcf6 2d3e b756 c23d
00000040: 592e 393d abb7 bd3c da35 623e 10d3 f33d
00000050: f304 993e 8b70 073e 2019 343d b5ba ee3d
00000060: 87f7 153d c5a7 e63d 41de 813e eb4e a83e
00000070: 06e6 193d 5f00 103e 3a50 363d d117 3b3d
00000080: 6f47 6a3d c226 c83c 0e97 813e 11af 053d
00000090: c3a8 d93e 580f 5f3d 6553 da3c a46f 013e
000000a0: 40bd 9e3d 7ea6 093d b0c4 683e 54db 833d
000000b0: 5f1b c13e a169 2d3d 4d3b 403d 6ee5 053e
000000c0: 4d22 7f3e 08f3 ad3d 0de5 133e f99d e53d
000000d0: d371 1a3e 8b35 d13d 8b20 ab3d 8426 953d
000000e0: a275 773d 5d19 c83d 8458 1a3f 4703 9f3d
000000f0: d6a6 7a3d a7cb d83c a33b 073d 7c80 263d
00000100: 2167 be3d 6df1 213e 9db6 f93d 2285 c63d
00000110: 0643 153e 7544 7b3d 27ee 813e 5b99 8d3d
00000120: d83d 473d 8a35 073d aea0 3b3d 4a30 2d3d
00000130: 0042 eb3e 7f96 f33c d25b 403d 9190 963e
00000140: 18eb 183d 9f99 0c3d 69a4 0b3d e886 8c3d
00000150: 98a6 1e3e 77a1 7a3e 112c 073e 127f 963e
00000160: d7cc f63c cb4a 823e 6f3d 2a3d c970 ac3e
00000170: 391f a23d 89a8 893d 8548 ac3d 842f da3d
00000180: 82c1 023d 077c 273d 5d35 b33c 09ed 613d
00000190: eaee f43d 7bf8 fa3e 027c ed3d 8dd0 fe3d
000001a0: a4c6 783d 4b26 d23d e1d5 e73c 0cf2 3f3e
000001b0: c9d8 4f3e cb25 0f3e 4916 dc3d b3c4 2e3e
000001c0: 6a1c 3f3d 21f6 ae3d 3092 563c de9e 043f
000001d0: e6d0 7d3c fb91 5d3e c847 1d3d 7e30 883d
000001e0: d097 823d 0eed 8b3e f393 4e3c 8338 113e
000001f0: 49bf 2a3d 566e 7f3e d55c 113e 7b7a 9a3d
00000200: acf6 ec3e 1a07 033e 704c d03d 9846 6d3d
00000210: c935 773d 6736 553d eca5 603d 509e a83d
00000220: fa26 4c3e 282c eb3c 89ee c13d 2645 283d
00000230: 47cf c23d a1be 6f3d aa31 de3e 5bc1 463d
00000240: af18 fa3e aecb 243d a986 0a3e a6fe 4d3d
00000250: c65c 063e 03e3 1a3d 9c68 9f3d 2e2e 1f3d
00000260: 7daa 223d f20a 963c afd5 603e b36e 5e3e
00000270: 98ce 883d 4988 4f3e c6e8 093e 8fee ce3d
00000280: c9db 6e3d b3dc d93c 0a9b 433e 5b57 df3d
00000290: 0210 813e 9d65 c73d 2349 a53d 5a4f 3d3e

weights f4 [21, 8]
0.12954438 0.12378906 0.10677148 0.102743804 0.09914606 0.15995069 0.16334453 0.11470998
0.0892166 0.08496497 0.22505842 0.09844084 0.066787526 0.071932994 0.15176255 0.21183616
0.3419694 0.091162056 0.0866536 0.059179243 0.04126337 0.024990862 0.28405684 0.07072461
0.05019126 0.04833922 0.03237428 0.08095296 0.03522785 0.108337365 0.49662393 0.14795314
0.1842154 0.26054755 0.06557187 0.09374981 0.043690942 0.020861033 0.27105892 0.06030449
0.09248039 0.4043733 0.0765941 0.0929671 0.07557249 0.036277786 0.13112062 0.09061419
0.08908401 0.2640149 0.19132702 0.091218844 0.12246401 0.04278473 0.10030666 0.09879979
0.027061561 0.2722465 0.049919862 0.07525025 0.047680404 0.038200203 0.09966606 0.38997516
0.04494078 0.14851086 0.018255506 0.038047742 0.05256676 0.13254054 0.49679512 0.06834272
0.18157238 0.20454642 0.045595925 0.06673154 0.11738969 0.04783081 0.31403545 0.022297762
0.08564228 0.040321432 0.073603295 0.034556177 0.062298775 0.11624745 0.5337305 0.053600114
0.06225842 0.043357395 0.49644148 0.036067612 0.07622476 0.1281677 0.10765171 0.04983101
0.058083933 0.04384405 0.06022104 0.02963741 0.07603366 0.13153486 0.57471895 0.025926054
0.48566377 0.07689948 0.08394362 0.044105776 0.08529677 0.05079023 0.14902589 0.024274413
0.026622046 0.018422553 0.19738531 0.03596409 0.048394967 0.5500779 0.054785155 0.068347886
0.029334135 0.019848468 0.07369651 0.05087079 0.06277105 0.6624462 0.06989806 0.031134674
0.13306671 0.10361348 0.090218976 0.020901844 0.39515993 0.09081565 0.105386585 0.060836915
0.13605912 0.09323272 0.5403623 0.02442385 0.07681763 0.028166639 0.040782597 0.06015517
0.1243454 0.10740201 0.3925007 0.024775196 0.15827519 0.0378885 0.07073321 0.08407984
0.08873489 0.034495503 0.4021735 0.011386523 0.03265968 0.16181977 0.09802293 0.17070723
0.5185862 0.22522996 0.074241236 0.013407749 0.032022484 0.023166513 0.06312704 0.050218802
00000000: 48a7 043e 1e85 fd3d 01ab da3d 586b d23d
00000010: 170d cb3d 1dca 233e ca43 273e 11ed ea3d
00000020: 31b7 b63d 1d02 ae3d b775 663e 5a9b c93d
00000030: e6c7 883d 9b51 933d a467 1b3e 94eb 583e
00000040: 9d16 af3e 2cb3 ba3d 7177 b13d ef65 723d
00000050: c803 293d a3b9 cc3c e66f 913e 10d8 903d
00000060: 5a95 4d3d 59ff 453d e59a 043d aaca a53d
00000070: 144b 103d fbdf dd3d 7e45 fe3e 0781 173e
00000080: f6a2 3c3e 7d66 853e 8b4a 863d e6ff bf3d
00000090: 46f5 323d c2e4 aa3c 3cc8 8a3e d701 773d
000000a0: 5c66 bd3d 040a cf3e 5edd 9c3d 8965 be3d
000000b0: c0c5 9a3d 0498 143d 7c44 063e ef93 b93d
000000c0: ad71 b63d f62c 873e 3beb 433e f2d0 ba3d
000000d0: 69ce fa3d 0b3f 2f3d 946d cd3d 8b57 ca3d
000000e0: 35b0 dd3c e563 8b3e c578 4c3d ce1c 9a3d
000000f0: 874c 433d d177 1c3d b81d cc3d d3aa c73e
00000100: d313 383d 3b13 183e 928c 953c f3d7 1b3d
00000110: 3e50 573d b5b8 073e ee5b fe3e 45f7 8b3d
00000120: 1cee 393e 9e74 513e cbc2 3a3d 8caa 883d
00000130: 016a f03d 3dea 433d 41c9 a03e cca9 b63c
00000140: 3865 af3d 1628 253d 53bd 963d c78a 0d3d
00000150: 002d 7f3d 2513 ee3d 90a2 083f cb8b 5b3d
00000160: af02 7f3d 8697 313d 942d fe3e a2bb 133d
00000170: ba1b 9c3d 653e 033e 8078 dc3d 9a1b 4c3d
00000180: 6be9 6d3d d295 333d 56aa 763d 27ca f23c
00000190: 89b7 9b3d 13b1 063e c820 133f e062 d43c
000001a0: eca8 f83e 797d 9d3d a2ea ab3d 42a8 343d
000001b0: 13b0 ae3d 6b09 503d 3e9a 183e 22db c63c
000001c0: 7a16 da3c e5ea 963c 601f 4a3e 154f 133d
000001d0: cd39 463d e8d1 0c3f 6666 603d faf9 8b3d
000001e0: 244e f03c 4199 a23c 32ee 963d e45d 503d
000001f0: 1c8e 803d 1396 293f b726 8f3d 250e ff3c
00000200: a442 083e 4e33 d43d bac4 b83d 583a ab3c
00000210: 6752 ca3e 8efd b93d ecd4 d73d 2130 793d
00000220: 1553 0b3e ccf0 be3d 2f55 0a3f 8714 c83c
00000230: 9052 9d3d b9bd e63c a70b 273d 4465 763d
00000240: cda8 fe3d 96f5 db3d daf5 c83e 5af5 ca3c
00000250: e412 223e f930 1b3d 93dc 903d 0d32 ac3d
00000260: a3ba b53d 284b 0d3d afe9 cd3e 8a8e 3a3c
00000270: 28c6 053d 15b4 253e 3fc0 c83d e0cd 2e3e
00000280: 11c2 043f afa2 663e ca0b 983d 2dac 5b3c
00000290: 022a 033d b3c7 bd3c c048 813d 3bb2 4d3d
